model.tflite (tflite, 196552 bytes, 6 tensors)

sequential/dense_1/BiasAdd/ReadVariableOp f4 [64]
000000 8d ca 3a 3d ae 13 26 3b ad 49 49 3d a4 97 99 3c
       0.045603324 0.002534132 0.04914253 0.018749066
000010 b3 ba b5 3d 2c 94 8c 3d f3 65 0c 3e 8f 0b 18 3d
       0.08873501 0.06864199 0.13710766 0.037120398
000020 cf d1 f4 3c c2 42 c8 3c bd 89 47 3e e3 cb 37 3c
       0.0298852 0.024445895 0.19486137 0.011218044
000030 56 26 78 3d 4f f0 07 3d 2e d4 ee 3b be a5 5e 3d
       0.060583435 0.03318816 0.0072884774 0.054357283
000040 16 bb 47 3d ac 57 ad 3b e7 0b 21 3c 94 f9 93 3d
       0.048762403 0.0052899923 0.009829498 0.072253376
000050 0f 8c 02 3d be 2d e1 39 f8 9a a5 3d 06 19 95 bc
       0.03187185 0.00042949425 0.080861986 -0.018200409
000060 1f 2c 86 bc 85 c4 41 3d d0 5e bd 3c dc 15 ef 3d
       -0.01637846 0.047306556 0.0231165 0.11674091
000070 df d8 24 3c 37 90 ea 3d f2 57 6e 3c 31 9c 82 3d
       0.010061472 0.11453288 0.014547335 0.063774474
000080 f1 3e 53 3d 95 44 93 3b a9 24 0c 3b b3 ea da 3c
       0.051573697 0.0044942596 0.0021384156 0.026723241
000090 04 23 37 3d e5 ec eb 3c f9 77 22 3d 08 70 7b 3d
       0.044711128 0.028799484 0.039665196 0.06138614
0000a0 d1 bb 02 3d 88 09 49 3c 31 77 94 3d 68 ee 05 3e
       0.031917397 0.012270339 0.072492965 0.13079226
0000b0 19 15 93 3d c3 58 eb 3b da 2b fb 3c 18 67 17 bd
       0.071817584 0.007182212 0.030660558 -0.036963552
0000c0 5e 67 18 3c 43 f2 a6 3d f5 37 b3 3c 85 b9 6f 3d
       0.009301988 0.081516765 0.021877268 0.058526535
0000d0 7a 73 9b 3c 07 6d af bc db 30 00 3b d8 fc 18 3d
       0.018975962 -0.021414293 0.001956037 0.037350506
0000e0 21 f6 ae ba 35 7b 8e 3d 5b 3f 56 3d 98 6e b9 3d
       -0.0013348499 0.069570936 0.052306514 0.09054297
0000f0 36 1a 11 3e d4 0b 81 3c 9d 26 73 3d a4 b9 d8 3c
       0.14170155 0.01575271 0.059362996 0.026455708

sequential/dense_2/BiasAdd/ReadVariableOp f4 [43]
000000 bc 06 97 bd 96 6c b9 3c a0 fa 97 bc d1 1e 4b 3d
       -0.07374331 0.022634786 -0.018552125 0.049589936
000010 6a 66 60 bc 12 9a bb bd 54 e6 e3 bd 8c 85 0b be
       -0.013696292 -0.09160246 -0.11127916 -0.13625163
000020 0f 1e aa 3d 4f d5 42 bd d6 a6 4d 3d 6e 67 18 3e
       0.083065145 -0.04756671 0.050207935 0.14883205
000030 d4 94 49 bd da 27 9b 3d 59 ee 3f be 31 f2 00 bd
       -0.0492142 0.075759605 -0.18743266 -0.03148097
000040 d6 5b 15 bd 10 9c 6c bd 30 e6 98 3d 8a cb 02 be
       -0.036464535 -0.05776602 0.0746578 -0.12772956
000050 d1 47 e5 bd 20 cb 3f be 5e 6f b8 bd 6a 5e cb bd
       -0.111953385 -0.1872983 -0.090056166 -0.099301174
000060 27 11 4c bd 46 d4 ba 3d 8c 43 37 be 06 61 04 be
       -0.049821045 0.09122519 -0.17896861 -0.12927637
000070 3c 1b ce bd 50 2e 19 be 00 f8 85 bb d1 dd 82 3e
       -0.10063788 -0.14959073 -0.004088402 0.25559857
000080 16 f5 6e 3c 6d d9 02 3e ab ef 54 3d d6 51 24 be
       0.0145848 0.12778254 0.051986378 -0.16046843
000090 15 fd 36 be d9 ee 1f 3e aa eb 7b 3c 52 0a b0 bb
       -0.1786998 0.15618457 0.015376011 -0.005372324
0000a0 47 ec b0 3d 00 c1 98 bd e6 ec 40 bc
       0.08638816 -0.07458687 -0.011775231

sequential/dense/BiasAdd/ReadVariableOp f4 [128]
000000 9c 30 79 3c 30 21 1c 3d 57 4d 6f 3d e0 8d 6d 3d
       0.015209343 0.038117588 0.058423366 0.05799663
000010 7a 47 48 3d bf 24 4e 3d df 21 48 3d af ad 6f 3d
       0.04889629 0.050328013 0.048860427 0.058515247
000020 68 c1 ec 3c ab f2 11 3d 93 1a fb 3c 5f c2 17 3d
       0.028900817 0.035631817 0.03065232 0.0370506
000030 03 55 38 3d e2 4a b6 3c 4e fc 8c 3d 0e 65 e3 3c
       0.04500295 0.022252504 0.06884061 0.027758148
000040 b0 99 67 3d 39 8c 91 3d 92 a7 21 3d dc 5b 1d 3d
       0.056543052 0.071068235 0.039466448 0.038417682
000050 f3 45 0c 3d 7b bb 14 3d 07 37 5b 3d c5 f8 bf 3c
       0.034246396 0.036311608 0.053519275 0.023434052
000060 b0 df 4b 3d d6 a0 47 3d 57 86 39 3c b7 d2 f7 3c
       0.049773872 0.04873737 0.011323533 0.030251844
000070 bd b7 6e 3d a8 12 2c 3d 19 7f 67 3d 16 94 54 3d
       0.058280695 0.04200998 0.056517694 0.05189904
000080 01 5c 2e 3c 2a 25 00 bc af 03 4b 3d e5 d9 82 3d
       0.010642053 -0.007821361 0.04956406 0.06389216
000090 39 f5 24 3d 32 3f 86 3d 4e 86 38 3d ec 85 e6 3c
       0.040272925 0.06555022 0.045049958 0.02814003
0000a0 cf 4d 39 3d 0f 02 46 3d 0e a1 f6 3c 1d 87 94 3d
       0.04524022 0.048341807 0.030106094 0.07252333
0000b0 b6 26 46 3d bd 4b 92 3c ee 91 62 3d 6b 87 17 3d
       0.04837676 0.01785838 0.05531495 0.03699438
0000c0 1e ef d3 3c 7e d8 db 3c f6 1a 06 3d 4d 07 28 3d
       0.025870856 0.02683663 0.032740556 0.041022588
0000d0 4e 9a 4a 3d 3d f0 2b 3d 5c 7e 00 3d ed 0b 71 3d
       0.049463563 0.041977156 0.031370506 0.058849264
0000e0 ef 7d 3f bc 72 cf 85 3d 32 b6 90 3d f7 c2 fe 3c
       -0.01168774 0.06533708 0.07066001 0.031098826
0000f0 0a f2 39 3d 32 05 a8 3d b0 90 86 3d 6f 22 82 3d
       0.045396842 0.08204116 0.06570566 0.06354224
000100 1c 6f 35 3d ec 79 96 3d 7d 0c 64 3d d4 8e 8c 3b
       0.044295415 0.073474735 0.055675972 0.0042894874
000110 c1 b9 a6 3c c7 5f 84 3c 6d 4b 8f 3d da e9 0c 3d
       0.020352246 0.016158951 0.06996808 0.034402706
000120 2b 82 0e 3d f2 76 5d 3d 47 01 4b 3d a8 e1 36 3d
       0.034792107 0.054068513 0.049561765 0.044648796
000130 f5 09 47 3d 87 b9 4f 3d f7 2f 79 3d f4 28 44 3d
       0.04859348 0.050714042 0.06083676 0.04789062
000140 83 be 05 3d 9d cd 8f 3d 5f 6b 1b 3d 88 bd 85 3d
       0.03265239 0.070216395 0.037944194 0.06530291
000150 d6 6c 26 3d c5 72 36 3d a2 49 95 3c 91 3b 23 3d
       0.040631138 0.044543047 0.018223587 0.03985173
000160 9d a1 45 3d f8 4c 46 3d ee 26 3f 3d 6c 8b 5b 3d
       0.04824983 0.048413247 0.046667986 0.05359976
000170 df 2d 44 3d 50 e0 48 3d 86 b8 fc 3c 4a d6 57 3d
       0.04789531 0.049042046 0.030849706 0.052694596
000180 7a 44 e2 3c 0c 0f 9f 3d a8 42 6a 3d 34 93 38 3d
       0.027620543 0.07766542 0.057192475 0.04506226
000190 21 ee 67 3c 0f 0f 3b 3d 64 dd 56 3d f1 fe 6b 3d
       0.014155895 0.045668658 0.05245723 0.057616178
0001a0 5a 4d 61 3d 19 26 6b 3d fc da 85 3d 68 37 34 3d
       0.05500541 0.05740938 0.065359086 0.043998152
0001b0 bd 21 49 3d df d0 46 3d 1f b8 92 3d 28 7a 7f 3d
       0.04910444 0.04853904 0.071640246 0.062372357
0001c0 2f 79 39 3d 6f 76 1d 3d fd fe c2 3c 06 f6 91 3d
       0.045281585 0.038443025 0.023803229 0.07127003
0001d0 89 bc 6a 3d 71 ee 0e 3d 5a 98 38 3d 68 2b 36 3d
       0.057308707 0.034895364 0.04506717 0.04447499
0001e0 69 e6 79 3d 3a 59 4b 3d 74 61 03 3d 2f d0 10 3d
       0.061010752 0.04964564 0.03207536 0.03535479
0001f0 b0 7a 8c 3c 62 11 a4 3c e3 3e 06 3d 80 7e 14 3d
       0.017148346 0.02002782 0.032774817 0.036253452

sequential/dense/MatMul i1 [128, 1425] scale=0.0039232573 zero_point=0
000000 01 f5 09 1f f8 15 f2 f5 f6 06 04 0e 03 05 fa f8
       0.0039232573 -0.04315583 0.035309315 0.121620975 -0.03138606 0.0823884 -0.054925602 -0.04315583 -0.039232574 0.023539543 0.01569303 0.054925602 0.011769772 0.019616287 -0.023539543 -0.03138606
000010 04 ef 0b fd fb 0f 07 f1 fa f6 1b fc fc 02 05 fd
       0.01569303 -0.06669538 0.04315583 -0.011769772 -0.019616287 0.05884886 0.027462801 -0.05884886 -0.023539543 -0.039232574 0.10592795 -0.01569303 -0.01569303 0.007846515 0.019616287 -0.011769772
000020 07 20 ee f3 ed e5 f5 e8 0f 27 fc f1 f2 fa ec eb
       0.027462801 0.12554424 -0.07061863 -0.051002346 -0.07454189 -0.10592795 -0.04315583 -0.09415817 0.05884886 0.15300703 -0.01569303 -0.05884886 -0.054925602 -0.023539543 -0.07846515 -0.0823884
000030 0a ff 0a 0a 15 ea f2 f5 f1 14 f5 05 1f e2 01 fd
       0.039232574 -0.0039232573 0.039232574 0.039232574 0.0823884 -0.08631166 -0.054925602 -0.04315583 -0.05884886 0.07846515 -0.04315583 0.019616287 0.121620975 -0.11769772 0.0039232573 -0.011769772
000040 fe 00 fd 03 04 ec 0f 1a fe ee f6 f4 12 1d 02 1b
       -0.007846515 0.0 -0.011769772 0.011769772 0.01569303 -0.07846515 0.05884886 0.10200469 -0.007846515 -0.07061863 -0.039232574 -0.047079086 0.07061863 0.11377446 0.007846515 0.10592795
000050 13 19 19 0a 0b 03 f1 0f 08 1f 0b 17 ff f4 fd 02
       0.07454189 0.09808143 0.09808143 0.039232574 0.04315583 0.011769772 -0.05884886 0.05884886 0.03138606 0.121620975 0.04315583 0.09023492 -0.0039232573 -0.047079086 -0.011769772 0.007846515
000060 0e fb fb e2 0c f8 0e 03 13 05 ff 13 f3 0b 10 f2
       0.054925602 -0.019616287 -0.019616287 -0.11769772 0.047079086 -0.03138606 0.054925602 0.011769772 0.07454189 0.019616287 -0.0039232573 0.07454189 -0.051002346 0.04315583 0.06277212 -0.054925602
000070 1f 09 f9 06 f2 f7 f9 16 02 fd ff 03 02 f2 eb 13
       0.121620975 0.035309315 -0.027462801 0.023539543 -0.054925602 -0.035309315 -0.027462801 0.08631166 0.007846515 -0.011769772 -0.0039232573 0.011769772 0.007846515 -0.054925602 -0.0823884 0.07454189
000080 f2 00 01 04 10 e4 f8 00 04 06 19 fe 0a 11 0e 04
       -0.054925602 0.0 0.0039232573 0.01569303 0.06277212 -0.109851204 -0.03138606 0.0 0.01569303 0.023539543 0.09808143 -0.007846515 0.039232574 0.06669538 0.054925602 0.01569303
000090 13 0b 1e 08 ef f0 e5 f0 f7 fd 02 ec f1 f8 10 09
       0.07454189 0.04315583 0.11769772 0.03138606 -0.06669538 -0.06277212 -0.10592795 -0.06277212 -0.035309315 -0.011769772 0.007846515 -0.07846515 -0.05884886 -0.03138606 0.06277212 0.035309315
0000a0 14 02 f3 f3 1d 00 27 1c 07 14 0f 0c ef f6 00 00
       0.07846515 0.007846515 -0.051002346 -0.051002346 0.11377446 0.0 0.15300703 0.109851204 0.027462801 0.07846515 0.05884886 0.047079086 -0.06669538 -0.039232574 0.0 0.0
0000b0 01 f1 fa 03 03 f8 ff 0c fb fc 02 34 1d 01 fc 02
       0.0039232573 -0.05884886 -0.023539543 0.011769772 0.011769772 -0.03138606 -0.0039232573 0.047079086 -0.019616287 -0.01569303 0.007846515 0.20400938 0.11377446 0.0039232573 -0.01569303 0.007846515
0000c0 0d 24 01 01 0d 1c 18 2b f2 fe 07 db 10 02 01 2a
       0.051002346 0.14123726 0.0039232573 0.0039232573 0.051002346 0.109851204 0.09415817 0.16870007 -0.054925602 -0.007846515 0.027462801 -0.14516053 0.06277212 0.007846515 0.0039232573 0.1647768
0000d0 04 fa 04 2c 1a 0e 12 e4 0c f9 f4 de fb f9 15 e6
       0.01569303 -0.023539543 0.01569303 0.17262332 0.10200469 0.054925602 0.07061863 -0.109851204 0.047079086 -0.027462801 -0.047079086 -0.13339075 -0.019616287 -0.027462801 0.0823884 -0.10200469
0000e0 fc 00 fd fa f7 06 13 0b 14 f0 0e f8 03 0c 00 fe
       -0.01569303 0.0 -0.011769772 -0.023539543 -0.035309315 0.023539543 0.07454189 0.04315583 0.07846515 -0.06277212 0.054925602 -0.03138606 0.011769772 0.047079086 0.0 -0.007846515
0000f0 0c f8 0c 09 f5 0e 09 ff 0b fe 08 f2 fa f9 00 fd
       0.047079086 -0.03138606 0.047079086 0.035309315 -0.04315583 0.054925602 0.035309315 -0.0039232573 0.04315583 -0.007846515 0.03138606 -0.054925602 -0.023539543 -0.027462801 0.0 -0.011769772

sequential/dense_1/MatMul i1 [64, 128] scale=0.005660651 zero_point=0
000000 02 1c 0e 0f 1f 0c 2b 3d 1c 06 64 06 eb 41 bb 16
       0.011321302 0.15849823 0.079249114 0.08490976 0.17548017 0.06792781 0.24340798 0.3452997 0.15849823 0.033963904 0.5660651 0.033963904 -0.11887366 0.3679423 -0.39058492 0.12453432
000010 45 e7 25 01 17 eb 18 f4 cf 2e 09 3d fd 10 1c 09
       0.39058492 -0.14151627 0.20944408 0.005660651 0.13019496 -0.11887366 0.13585562 -0.06792781 -0.27737188 0.26038992 0.050945856 0.3452997 -0.016981952 0.09057041 0.15849823 0.050945856
000020 ee 2b 27 10 1d 10 d6 01 0a c3 04 f6 2a c9 ef 04
       -0.10189171 0.24340798 0.22076538 0.09057041 0.16415887 0.09057041 -0.23774733 0.005660651 0.05660651 -0.3452997 0.022642603 -0.05660651 0.23774733 -0.3113358 -0.096231066 0.022642603
000030 e4 07 df 00 0e fa 21 07 d8 0d 46 49 f4 f4 e0 ee
       -0.15849823 0.039624557 -0.18680148 0.0 0.079249114 -0.033963904 0.18680148 0.039624557 -0.22642604 0.07358846 0.39624557 0.4132275 -0.06792781 -0.06792781 -0.18114083 -0.10189171
000040 cf c2 fb e3 18 18 fe 2c 18 26 ff f4 46 fd 38 ed
       -0.27737188 -0.35096034 -0.028303254 -0.16415887 0.13585562 0.13585562 -0.011321302 0.24906863 0.13585562 0.21510473 -0.005660651 -0.06792781 0.39624557 -0.016981952 0.31699646 -0.107552364
000050 11 fa 13 02 30 05 19 15 f9 1c fb ba e5 06 0a 0a
       0.096231066 -0.033963904 0.107552364 0.011321302 0.27171123 0.028303254 0.14151627 0.11887366 -0.039624557 0.15849823 -0.028303254 -0.39624557 -0.15283757 0.033963904 0.05660651 0.05660651
000060 21 fc 47 e5 ee 3d 03 e5 e2 f3 f1 23 4e fc e9 09
       0.18680148 -0.022642603 0.4019062 -0.15283757 -0.10189171 0.3452997 0.016981952 -0.15283757 -0.16981952 -0.07358846 -0.08490976 0.19812278 0.44153076 -0.022642603 -0.13019496 0.050945856
000070 38 09 f8 e6 bc fa fe b8 38 10 2d 05 c5 d5 0d fe
       0.31699646 0.050945856 -0.045285206 -0.14717692 -0.38492426 -0.033963904 -0.011321302 -0.40756685 0.31699646 0.09057041 0.25472927 0.028303254 -0.33397838 -0.24340798 0.07358846 -0.011321302
000080 17 2b e5 30 16 30 19 e4 fd 31 b3 06 22 e6 f4 fe
       0.13019496 0.24340798 -0.15283757 0.27171123 0.12453432 0.27171123 0.14151627 -0.15849823 -0.016981952 0.27737188 -0.4358701 0.033963904 0.19246213 -0.14717692 -0.06792781 -0.011321302
000090 ff 4b db b4 01 14 c5 33 f2 18 27 ed 25 f1 03 d4
       -0.005660651 0.4245488 -0.20944408 -0.43020946 0.005660651 0.11321302 -0.33397838 0.2886932 -0.079249114 0.13585562 0.22076538 -0.107552364 0.20944408 -0.08490976 0.016981952 -0.24906863
0000a0 26 0c de da f8 04 f0 f4 39 43 ff 16 e3 2c ef 23
       0.21510473 0.06792781 -0.19246213 -0.21510473 -0.045285206 0.022642603 -0.09057041 -0.06792781 0.3226571 0.3792636 -0.005660651 0.12453432 -0.16415887 0.24906863 -0.096231066 0.19812278
0000b0 1e 0e f9 10 f8 09 e7 c3 12 09 d7 00 06 2b 11 e5
       0.16981952 0.079249114 -0.039624557 0.09057041 -0.045285206 0.050945856 -0.14151627 -0.3452997 0.10189171 0.050945856 -0.23208669 0.0 0.033963904 0.24340798 0.096231066 -0.15283757
0000c0 fd 1a f2 17 0b 1a 31 08 20 f5 f5 17 1a db c1 10
       -0.016981952 0.14717692 -0.079249114 0.13019496 0.06226716 0.14717692 0.27737188 0.045285206 0.18114083 -0.06226716 -0.06226716 0.13019496 0.14717692 -0.20944408 -0.356621 0.09057041
0000d0 e7 f1 32 09 ec e5 fa 17 1a fa db 3f 4c 06 10 21
       -0.14151627 -0.08490976 0.28303254 0.050945856 -0.11321302 -0.15283757 -0.033963904 0.13019496 0.14717692 -0.033963904 -0.20944408 0.356621 0.43020946 0.033963904 0.09057041 0.18680148
0000e0 01 1b ff 3f 0d 06 0f 36 f4 21 0d ee fc 1a 25 f3
       0.005660651 0.15283757 -0.005660651 0.356621 0.07358846 0.033963904 0.08490976 0.30567515 -0.06792781 0.18680148 0.07358846 -0.10189171 -0.022642603 0.14717692 0.20944408 -0.07358846
0000f0 e4 28 2b 0e 20 15 27 ec df f6 f7 14 3b 15 1b fe
       -0.15849823 0.22642604 0.24340798 0.079249114 0.18114083 0.11887366 0.22076538 -0.11321302 -0.18680148 -0.05660651 -0.050945856 0.11321302 0.33397838 0.11887366 0.15283757 -0.011321302

sequential/dense_2/MatMul i1 [43, 64] scale=0.0107724285 zero_point=0
000000 e8 e8 fa ef 0f e5 ea d9 05 e2 f9 eb e7 f3 fd fe
       -0.25853828 -0.25853828 -0.06463457 -0.18313128 0.16158643 -0.29085556 -0.23699343 -0.4201247 0.053862143 -0.32317287 -0.075407 -0.226221 -0.2693107 -0.14004157 -0.032317284 -0.021544857
000010 07 e3 f1 dc f9 fd e3 f3 ee ec f2 03 fe e3 f4 01
       0.075407 -0.31240043 -0.16158643 -0.38780743 -0.075407 -0.032317284 -0.31240043 -0.14004157 -0.19390371 -0.21544857 -0.150814 0.032317284 -0.021544857 -0.31240043 -0.12926914 0.0107724285
000020 01 f0 00 e4 f8 0b 08 f4 06 03 ec f4 f6 0a e3 ee
       0.0107724285 -0.17235886 0.0 -0.301628 -0.08617943 0.118496716 0.08617943 -0.12926914 0.06463457 0.032317284 -0.21544857 -0.12926914 -0.10772429 0.10772429 -0.31240043 -0.19390371
000030 eb f4 07 fa 08 02 0e 14 ce f8 f9 d8 02 ea ed e8
       -0.226221 -0.12926914 0.075407 -0.06463457 0.08617943 0.021544857 0.150814 0.21544857 -0.5386214 -0.08617943 -0.075407 -0.43089715 0.021544857 -0.23699343 -0.20467614 -0.25853828
000040 0f 1c 10 1e fc ff dd e1 fb 12 f0 0f 12 e0 11 09
       0.16158643 0.301628 0.17235886 0.32317287 -0.043089714 -0.0107724285 -0.377035 -0.33394527 -0.053862143 0.19390371 -0.17235886 0.16158643 0.19390371 -0.3447177 0.18313128 0.09695186
000050 06 fa 12 f3 13 1a 08 0b 1a fa 16 e7 f2 fe 14 ed
       0.06463457 -0.06463457 0.19390371 -0.14004157 0.20467614 0.28008315 0.08617943 0.118496716 0.28008315 -0.06463457 0.23699343 -0.2693107 -0.150814 -0.021544857 0.21544857 -0.20467614
000060 0e 10 10 12 de 16 17 04 18 19 0c e3 f1 ee 19 ef
       0.150814 0.17235886 0.17235886 0.19390371 -0.36626256 0.23699343 0.24776585 0.043089714 0.25853828 0.2693107 0.12926914 -0.31240043 -0.16158643 -0.19390371 0.2693107 -0.18313128
000070 10 f5 0e 09 12 18 1e f1 e1 d3 19 d1 d9 11 13 f9
       0.17235886 -0.118496716 0.150814 0.09695186 0.19390371 0.25853828 0.32317287 -0.16158643 -0.33394527 -0.48475927 0.2693107 -0.50630414 -0.4201247 0.18313128 0.20467614 -0.075407
000080 1b e8 e0 f6 e5 0e 0c 03 15 fc 08 1e ec db e8 c9
       0.29085556 -0.25853828 -0.3447177 -0.10772429 -0.29085556 0.150814 0.12926914 0.032317284 0.226221 -0.043089714 0.08617943 0.32317287 -0.21544857 -0.39857987 -0.25853828 -0.5924836
000090 ff eb fc f8 0d f0 de de 10 1b e6 ec 0b cb 1a e8
       -0.0107724285 -0.226221 -0.043089714 -0.08617943 0.14004157 -0.17235886 -0.36626256 -0.36626256 0.17235886 0.29085556 -0.28008315 -0.21544857 0.118496716 -0.5709387 0.28008315 -0.25853828
0000a0 1c dd d9 0f 09 eb 04 f5 ea e2 14 e2 cd 11 fb ef
       0.301628 -0.377035 -0.4201247 0.16158643 0.09695186 -0.226221 0.043089714 -0.118496716 -0.23699343 -0.32317287 0.21544857 -0.32317287 -0.54939383 0.18313128 -0.053862143 -0.18313128
0000b0 17 07 ef c2 f2 db e6 11 e8 07 e7 b6 c1 12 1a 0b
       0.24776585 0.075407 -0.18313128 -0.66789055 -0.150814 -0.39857987 -0.28008315 0.18313128 -0.25853828 0.075407 -0.2693107 -0.79715973 -0.678663 0.19390371 0.28008315 0.118496716
0000c0 09 fb 12 00 04 f9 dd fe 06 00 fa 12 e2 0e ea 04
       0.09695186 -0.053862143 0.19390371 0.0 0.043089714 -0.075407 -0.377035 -0.021544857 0.06463457 0.0 -0.06463457 0.19390371 -0.32317287 0.150814 -0.23699343 0.043089714
0000d0 0b 07 0a 05 11 05 17 0e f3 fc 0f f5 e9 05 0f f1
       0.118496716 0.075407 0.10772429 0.053862143 0.18313128 0.053862143 0.24776585 0.150814 -0.14004157 -0.043089714 0.16158643 -0.118496716 -0.24776585 0.053862143 0.16158643 -0.16158643
0000e0 fc 17 0c ed 17 0f f0 f3 f7 03 fd ed 02 04 0e fc
       -0.043089714 0.24776585 0.12926914 -0.20467614 0.24776585 0.16158643 -0.17235886 -0.14004157 -0.09695186 0.032317284 -0.032317284 -0.20467614 0.021544857 0.043089714 0.150814 -0.043089714
0000f0 f8 f9 0c 02 04 fc fa 07 e8 01 02 13 f1 06 ea f1
       -0.08617943 -0.075407 0.12926914 0.021544857 0.043089714 -0.043089714 -0.06463457 0.075407 -0.25853828 0.0107724285 0.021544857 0.20467614 -0.16158643 0.06463457 -0.23699343 -0.16158643
